…
/scratch/Project/ACCV_TinyGAN/data/comp_images/comp_IMAGENET_1000_2', real_fid_stat_dir='Get_ImageNet_FID', real_incep_stat_dir='stat_real', result_dir='gan/results', resume_epoch=0, sample_dir='gan/samples', sample_step=1, save_dir='gan', test_epoch=30, use_numpy_fid=True, use_tensorboard=False, use_vgg=True, z_dim=128, z_path='data/BigGANs_data/all_noises.npy')
# In train set, # of data: 471250
Finished preprocessing the dataset...
# In test set, # of data: 5000
Finished preprocessing the dataset...
# In Real set, # of data: 427275
Finished preprocessing the dataset...
Generator(
  (embeding): Embedding(1000, 128)
  (fc): Linear(in_features=128, out_features=8192, bias=True)
  (blocks): Sequential(
    (0): GBlock(
      (dw_conv1): Conv2d(512, 512, kernel_size=(3, 3), stride=(1, 1), padding=(1, 1), groups=512)
      (dw_conv2): Conv2d(512, 512, kernel_size=(3, 3), stride=(1, 1), padding=(1, 1), groups=512)
      (pw_conv1): Conv2d(512, 512, kernel_size=(1, 1), stride=(1, 1))
      (pw_conv2): Conv2d(512, 512, kernel_size=(1, 1), stride=(1, 1))
      (c_sc): Conv2d(512, 512, kernel_size=(1, 1), stride=(1, 1))
      (cbn0): CBN2d(
        (bn): BatchNorm2d(512, eps=1e-05, momentum=0.1, affine=False, track_running_stats=True)
        (embed): Linear(in_features=128, out_features=1024, bias=True)
      )
      (cbn1): CBN2d(
        (bn): BatchNorm2d(512, eps=1e-05, momentum=0.1, affine=False, track_running_stats=True)
        (embed): Linear(in_features=128, out_features=1024, bias=True)
      )
    )
    (1): GBlock(
      (dw_conv1): Conv2d(512, 512, kernel_size=(3, 3), stride=(1, 1), padding=(1, 1), groups=512)
      (dw_conv2): Conv2d(256, 256, kernel_size=(3, 3), stride=(1, 1), padding=(1, 1), groups=256)
      (pw_conv1): Conv2d(512, 256, kernel_size=(1, 1), stride=(1, 1))
      (pw_conv2): Conv2d(256, 256, kernel_size=(1, 1), stride=(1, 1))
      (c_sc): Conv2d(512, 256, kernel_size=(1, 1), stride=(1, 1))
      (cbn0): CBN2d(
        (bn): BatchNorm2d(512, eps=1e-05, momentum=0.1, affine=False, track_running_stats=True)
        (embed): Linear(in_features=128, out_features=1024, bias=True)
      )
      (cbn1): CBN2d(
        (bn): BatchNorm2d(256, eps=1e-05, momentum=0.1, affine=False, track_running_stats=True)
        (embed): Linear(in_features=128, out_features=512, bias=True)
      )
    )
    (2): GBlock(
      (dw_conv1): Conv2d(256, 256, kernel_size=(3, 3), stride=(1, 1), padding=(1, 1), groups=256)
      (dw_conv2): Conv2d(128, 128, kernel_size=(3, 3), stride=(1, 1), padding=(1, 1), groups=128)
      (pw_conv1): Conv2d(256, 128, kernel_size=(1, 1), stride=(1, 1))
      (pw_conv2): Conv2d(128, 128, kernel_size=(1, 1), stride=(1, 1))
      (c_sc): Conv2d(256, 128, kernel_size=(1, 1), stride=(1, 1))
      (cbn0): CBN2d(
        (bn): BatchNorm2d(256, eps=1e-05, momentum=0.1, affine=False, track_running_stats=True)
        (embed): Linear(in_features=128, out_features=512, bias=True)
      )
      (cbn1): CBN2d(
        (bn): BatchNorm2d(128, eps=1e-05, momentum=0.1, affine=False, track_running_stats=True)
        (embed): Linear(in_features=128, out_features=256, bias=True)
      )
    )
    (3): GBlock(
      (dw_conv1): Conv2d(128, 128, kernel_size=(3, 3), stride=(1, 1), padding=(1, 1), groups=128)
      (dw_conv2): Conv2d(64, 64, kernel_size=(3, 3), stride=(1, 1), padding=(1, 1), groups=64)
      (pw_conv1): Conv2d(128, 64, kernel_size=(1, 1), stride=(1, 1))
      (pw_conv2): Conv2d(64, 64, kernel_size=(1, 1), stride=(1, 1))
      (c_sc): Conv2d(128, 64, kernel_size=(1, 1), stride=(1, 1))
      (cbn0): CBN2d(
        (bn): BatchNorm2d(128, eps=1e-05, momentum=0.1, affine=False, track_running_stats=True)
        (embed): Linear(in_features=128, out_features=256, bias=True)
      )
      (cbn1): CBN2d(
        (bn): BatchNorm2d(64, eps=1e-05, momentum=0.1, affine=False, track_running_stats=True)
        (embed): Linear(in_features=128, out_features=128, bias=True)
      )
    )
    (4): GBlock(
      (dw_conv1): Conv2d(64, 64, kernel_size=(3, 3), stride=(1, 1), padding=(1, 1), groups=64)
      (dw_conv2): Conv2d(32, 32, kernel_size=(3, 3), stride=(1, 1), padding=(1, 1), groups=32)
      (pw_conv1): Conv2d(64, 32, kernel_size=(1, 1), stride=(1, 1))
      (pw_conv2): Conv2d(32, 32, kernel_size=(1, 1), stride=(1, 1))
      (c_sc): Conv2d(64, 32, kernel_size=(1, 1), stride=(1, 1))
      (cbn0): CBN2d(
        (bn): BatchNorm2d(64, eps=1e-05, momentum=0.1, affine=False, track_running_stats=True)
        (embed): Linear(in_features=128, out_features=128, bias=True)
      )
      (cbn1): CBN2d(
        (bn): BatchNorm2d(32, eps=1e-05, momentum=0.1, affine=False, track_running_stats=True)
        (embed): Linear(in_features=128, out_features=64, bias=True)
      )
    )
  )
  (bn): BatchNorm2d(32, eps=1e-05, momentum=0.1, affine=True, track_running_stats=True)
  (colorize): Conv2d(32, 3, kernel_size=(3, 3), stride=(1, 1), padding=(1, 1))
)
G
The number of parameters: 3.1 M, (3070659)
Discriminator(
  (embeding): Embedding(1000, 512)
  (layers): Sequential(
    (0): Conv2d(3, 32, kernel_size=(4, 4), stride=(2, 2), padding=(1, 1))
    (1): LeakyReLU(negative_slope=0.01)
    (2): Conv2d(32, 64, kernel_size=(4, 4), stride=(2, 2), padding=(1, 1))
    (3): LeakyReLU(negative_slope=0.01)
    (4): Conv2d(64, 128, kernel_size=(4, 4), stride=(2, 2), padding=(1, 1))
    (5): LeakyReLU(negative_slope=0.01)
    (6): Conv2d(128, 256, kernel_size=(4, 4), stride=(2, 2), padding=(1, 1))
    (7): LeakyReLU(negative_slope=0.01)
    (8): Conv2d(256, 512, kernel_size=(4, 4), stride=(2, 2), padding=(1, 1))
    (9): LeakyReLU(negative_slope=0.01)
  )
  (fc_src): Linear(in_features=512, out_features=1, bias=True)
)
D
The number of parameters: 3.3 M, (3300321)
Start training...
[0/499], D/loss_real: 0.0935, D/loss_fake: 0.0049, D/loss_real2: 0.2784, D/loss_fake2: 0.0000, G/loss_ft: 0.0754, G/loss_l1: 0.3118, G/loss_fake: 0.8964, G/loss_fake2: 0.9158
[0/999], D/loss_real: 0.0264, D/loss_fake: 0.0022, D/loss_real2: 0.0185, D/loss_fake2: 0.0000, G/loss_ft: 0.0688, G/loss_l1: 0.2964, G/loss_fake: 1.9909, G/loss_fake2: 2.0408
…
